app/src/main/assets/hand_gesture_model.tflite (tflite, 21672 bytes, 6 tensors)

sequential/dense_1/BiasAdd/ReadVariableOp f4 [64]
0	0x3f08795c	0.5331018
1	0x3f07f182	0.53102887
2	0x3ec7f064	0.3905059
3	0x3ebe1a71	0.37129548
4	0x3e4039bb	0.18772022
5	0xbef14611	-0.4712377
6	0x3de4afc3	0.111663364
7	0x39f17cbc	0.00046060036
8	0x3ec3bb54	0.38228858
9	0xbdb565cb	-0.08857306
10	0xbe1aba04	-0.15110022
11	0x3f121eb1	0.5707808
12	0x3f026914	0.50941586
13	0x3e181b8f	0.14854263
14	0x3bbaf061	0.005704925
15	0xbecc3bae	-0.39889282
16	0x3eb73972	0.35786015
17	0x3d7926ac	0.060827896
18	0xbe2b95e2	-0.16756395
19	0xbea44ad9	-0.32088354
20	0x3e948c64	0.2901336
21	0x3f2ec1f0	0.68264675
22	0x3eead313	0.45864162
23	0x3db5b5f9	0.08872599
24	0xbe6bd30e	-0.2302973
25	0x3eacffc5	0.33788887
26	0x3d84ef98	0.064910114
27	0x3ef33d3f	0.47507665
28	0x3e3818ee	0.1797826
29	0x3e049a7c	0.12949556
30	0x3e60f8de	0.21969935
31	0xbd155a6a	-0.03646318
32	0x3f3a1691	0.72690684
33	0x3ec475c5	0.383711
34	0x3c8ffc01	0.01757622
35	0x3f28be87	0.6591572
36	0xbcc6e686	-0.024279844
37	0xbe29b4fd	-0.16572948
38	0x3ea51e06	0.3224947
39	0xbe1b76f9	-0.15182103
40	0xbc3cef8f	-0.011531725
41	0xbe2315f1	-0.15926339
42	0x3ddce045	0.107849635
43	0x3de8aad6	0.11360709
44	0xbec2356a	-0.37931377
45	0xbe5c05de	-0.21486613
46	0xbde14f92	-0.11001505
47	0x3e96dd8d	0.29465905
48	0x3e95a4da	0.29227334
49	0x3e603332	0.2189453
50	0x3d89fd11	0.06737722
51	0x3ead55cf	0.3385453
52	0x3eadb59f	0.33927628
53	0x3ef4d50b	0.4781879
54	0x3edb261f	0.42802522
55	0x3e880cb9	0.26572207
56	0xbe62036f	-0.22071622
57	0x3e8bead7	0.27327606
58	0x3d544f1f	0.05183327
59	0x3d424731	0.047431175
60	0x3f0aa5e0	0.54159355
61	0x3e6f53d6	0.23371825
62	0x3d4ecca0	0.050488114
63	0xbcb627de	-0.022235807

sequential/dense_2/BiasAdd/ReadVariableOp f4 [35]
0	0xbf3c8e33	-0.7365448
1	0xbe14f4b5	-0.14546473
2	0x3e9db7ed	0.30804387
3	0xbe710107	-0.23535548
4	0x3d9db058	0.076996505
5	0xbe33b53d	-0.17549606
6	0xbece19fa	-0.40254194
7	0xbdd7009f	-0.10498165
8	0xbf54b7f7	-0.8309321
9	0x3d1d1557	0.03835043
10	0x3ddc67a9	0.10761959
11	0xbe26b39a	-0.1627945
12	0xbf36e680	-0.71445465
13	0xbf72d348	-0.9485364
14	0xbe48962f	-0.1958854
15	0xbe2e2092	-0.17004612
16	0x3ede0449	0.43362644
17	0x3ea1ffaa	0.3164037
18	0x3f817c88	1.0116129
19	0x3ec4b084	0.3841592
20	0xbee56ffb	-0.44811997
21	0xbf200272	-0.6250373
22	0xbf3b3cb2	-0.7313949
23	0x3f02a004	0.51025414
24	0x3ef89f8c	0.48559225
25	0x3f55b410	0.8347788
26	0x3f1ce1ff	0.6128234
27	0x3f032b84	0.51238275
28	0x3f5caeb3	0.8620407
29	0x3f57864a	0.84189284
30	0xbe8c3658	-0.2738521
31	0x3ee9f6fc	0.45696247
32	0x3f0b39ea	0.54385245
33	0x3e96c4ad	0.29446927
34	0xbf33aaa1	-0.70182234

sequential/dense/BiasAdd/ReadVariableOp f4 [128]
0	0x00000000	0.0
1	0xbd939476	-0.07206051
2	0xbe1743a6	-0.147719
3	0xbb980c88	-0.0046401657
4	0x00000000	0.0
5	0x00000000	0.0
6	0xbb174c81	-0.0023086371
7	0xbe520ef4	-0.20513517
8	0x3ef603b6	0.48049706
9	0x3da7c0ec	0.08191094
10	0x00000000	0.0
11	0x00000000	0.0
12	0xbe690424	-0.22755486
13	0x00000000	0.0
14	0xbcb49c9c	-0.022047333
15	0x3ebf2215	0.3733069
16	0x3c538463	0.012909981
17	0x3e235533	0.1595047
18	0xbc1588ba	-0.009126836
19	0xbe4b12f7	-0.19831453
20	0x00000000	0.0
21	0x00000000	0.0
22	0x3f15deb1	0.58542925
23	0xbdd1ed6f	-0.10250365
24	0x3dd78f58	0.105253875
25	0xbf1a161e	-0.6019
26	0x3f0a65a1	0.54061323
27	0x00000000	0.0
28	0xbc51864c	-0.0127883665
29	0xbd558f94	-0.05213888
30	0x3e3b2d9a	0.18279114
31	0xbe65e577	-0.22450815
32	0x00000000	0.0
33	0x00000000	0.0
34	0xbd8cd076	-0.06875698
35	0xbeb44ec2	-0.35216337
36	0x00000000	0.0
37	0xbeb4a15f	-0.35279366
38	0x00000000	0.0
39	0xbebb835e	-0.36623663
40	0xbdb20f7c	-0.0869436
41	0xbc23033f	-0.009949504
42	0x00000000	0.0
43	0x00000000	0.0
44	0x00000000	0.0
45	0x3dabb33b	0.08383795
46	0x00000000	0.0
47	0xbed82131	-0.42212823
48	0x00000000	0.0
49	0xbdaa9f2b	-0.0833114
50	0x00000000	0.0
51	0xbbab40fd	-0.005226253
52	0xbc85f380	-0.016351461
53	0x3e103b5a	0.14085141
54	0x3c0ae357	0.008477054
55	0x3f107659	0.56430584
56	0xbbd4b796	-0.0064916117
57	0x3ece889f	0.4033861
58	0x3eda066b	0.42583022
59	0x3e170d9a	0.14751282
60	0x00000000	0.0
61	0x00000000	0.0
62	0x3e89ee96	0.2693984
63	0xbc4fadd4	-0.012675721
64	0xbd9f6909	-0.07783706
65	0xbc5ad738	-0.013356976
66	0x3e76afc7	0.24090491
67	0xbe1e83ee	-0.15480015
68	0xbc97aaaa	-0.018513996
69	0xbe9d7977	-0.30756733
70	0x3db43bf4	0.08800498
71	0x3dc4553a	0.09586568
72	0x00000000	0.0
73	0x3f037df6	0.51364076
74	0xbe636d1f	-0.22209595
75	0x00000000	0.0
76	0xbd84763e	-0.064678654
77	0xbe09b764	-0.13448864
78	0x3c2504aa	0.010071913
79	0x00000000	0.0
80	0x3e6d1241	0.23151495
81	0x3d2da431	0.042392913
82	0x00000000	0.0
83	0x3e1e3a32	0.15451887
84	0x00000000	0.0
85	0x3d971dd1	0.07378734
86	0xbe2d08d1	-0.16897894
87	0x00000000	0.0
88	0xbc4d663e	-0.0125365835
89	0x3d7004fc	0.058598503
90	0x3ee1f6cf	0.44133613
91	0x00000000	0.0
92	0x00000000	0.0
93	0xbc726014	-0.014793415
94	0x3e7efaba	0.24900332
95	0x00000000	0.0
96	0xbe076b10	-0.13224435
97	0xbca3ba70	-0.019986361
98	0x00000000	0.0
99	0x3e2d69d2	0.16934898
100	0x3e46d954	0.19418842
101	0xbea92f3d	-0.33043852
102	0xbbca40fa	-0.0061722966
103	0xbeb6b3cc	-0.3568405
104	0x3ec48f45	0.38390556
105	0xbef0de10	-0.4704442
106	0xbe33f32d	-0.17573233
107	0x00000000	0.0
108	0xbc59db67	-0.0132969385
109	0x3e3920fb	0.18078987
110	0xbc0944ad	-0.00837819
111	0xbedfbb72	-0.43697697
112	0xbc88595c	-0.016644172
113	0xbeaa462a	-0.33256656
114	0x3dbf8897	0.09352224
115	0xbca36a2d	-0.01994809
116	0x00000000	0.0
117	0x3ed7877c	0.42095554
118	0x3f5ce416	0.8628553
119	0xbdcdae33	-0.100429915
120	0xbb967a18	-0.0045921914
121	0x3dddac25	0.108238496
122	0xbf02d01d	-0.51098806
123	0xbd0196f6	-0.03163811
124	0x00000000	0.0
125	0x3d0b509a	0.034012415
126	0x00000000	0.0
127	0x00000000	0.0

sequential/dense/MatMul i1 [128, 63] scale=0.01431881 zero_point=0
0	0x05	0.07159405
1	0xf4	-0.17182572
2	0xfa	-0.08591286
3	0xf4	-0.17182572
4	0x05	0.07159405
5	0x0a	0.1431881
6	0xfc	-0.05727524
7	0xfc	-0.05727524
8	0x01	0.01431881
9	0xf8	-0.11455048
10	0x01	0.01431881
11	0x0a	0.1431881
12	0xf4	-0.17182572
13	0x09	0.1288693
14	0xf6	-0.1431881
15	0x00	0.0
16	0xf6	-0.1431881
17	0xf9	-0.10023167
18	0x02	0.02863762
19	0xf7	-0.1288693
20	0x06	0.08591286
21	0xfb	-0.07159405
22	0x00	0.0
23	0xfb	-0.07159405
24	0x06	0.08591286
25	0xfd	-0.04295643
26	0x01	0.01431881
27	0x0c	0.17182572
28	0x0c	0.17182572
29	0x09	0.1288693
30	0x00	0.0
31	0xfb	-0.07159405
32	0xfc	-0.05727524
33	0x04	0.05727524
34	0x02	0.02863762
35	0x09	0.1288693
36	0xfc	-0.05727524
37	0x02	0.02863762
38	0xf6	-0.1431881
39	0x03	0.04295643
40	0x06	0.08591286
41	0xfd	-0.04295643
42	0xfc	-0.05727524
43	0xfe	-0.02863762
44	0xfd	-0.04295643
45	0x02	0.02863762
46	0xfb	-0.07159405
47	0xfb	-0.07159405
48	0xf8	-0.11455048
49	0x04	0.05727524
50	0x01	0.01431881
51	0xf6	-0.1431881
52	0xfd	-0.04295643
53	0x0a	0.1431881
54	0xf4	-0.17182572
55	0xfd	-0.04295643
56	0x0b	0.15750691
57	0xff	-0.01431881
58	0x08	0.11455048
59	0xfe	-0.02863762
60	0xf4	-0.17182572
61	0x04	0.05727524
62	0x06	0.08591286
63	0xf3	-0.18614453
64	0xe6	-0.37228906
65	0x49	1.0452731
66	0xf0	-0.22910096
67	0xeb	-0.300695
68	0xe8	-0.34365144
69	0xee	-0.2577386
70	0xf9	-0.10023167
71	0xe1	-0.4438831
72	0xf4	-0.17182572
73	0x06	0.08591286
74	0xee	-0.2577386
75	0xea	-0.31501383
76	0x08	0.11455048
77	0x06	0.08591286
78	0xf9	-0.10023167
79	0x0b	0.15750691
80	0xd7	-0.5870712
81	0x00	0.0
82	0x17	0.32933262
83	0xf1	-0.21478215
84	0xff	-0.01431881
85	0x07	0.10023167
86	0xfe	-0.02863762
87	0x20	0.45820192
88	0x10	0.22910096
89	0xf9	-0.10023167
90	0xf3	-0.18614453
91	0x02	0.02863762
92	0xcf	-0.7016217
93	0x06	0.08591286
94	0x0c	0.17182572
95	0x05	0.07159405
96	0x06	0.08591286
97	0xfa	-0.08591286
98	0x16	0.31501383
99	0x18	0.34365144
100	0xd1	-0.67298406
101	0x03	0.04295643
102	0xf7	-0.1288693
103	0x02	0.02863762
104	0xe3	-0.41524547
105	0x04	0.05727524
106	0x11	0.24341977
107	0xfd	-0.04295643
108	0x12	0.2577386
109	0x07	0.10023167
110	0xf1	-0.21478215
111	0x14	0.2863762
112	0xe1	-0.4438831
113	0xeb	-0.300695
114	0xfc	-0.05727524
115	0x0e	0.20046334
116	0xf1	-0.21478215
117	0x08	0.11455048
118	0x18	0.34365144
119	0x04	0.05727524
120	0xff	-0.01431881
121	0x03	0.04295643
122	0x19	0.35797024
123	0xfd	-0.04295643
124	0x0b	0.15750691
125	0x0e	0.20046334
126	0x0c	0.17182572
127	0xf9	-0.10023167
128	0xf5	-0.15750691
129	0x12	0.2577386
130	0x13	0.27205738
131	0xea	-0.31501383
132	0x06	0.08591286
133	0x1b	0.38660786
134	0xef	-0.24341977
135	0x04	0.05727524
136	0x22	0.48683953
137	0xed	-0.27205738
138	0xfc	-0.05727524
139	0x26	0.54411477
140	0xdb	-0.52979594
141	0x0b	0.15750691
142	0xf4	-0.17182572
143	0x0f	0.21478215
144	0x00	0.0
145	0xf9	-0.10023167
146	0x39	0.8161722
147	0xf1	-0.21478215
148	0xe7	-0.35797024
149	0x3d	0.8734474
150	0xfc	-0.05727524
151	0xc7	-0.8161722
152	0x37	0.78753453
153	0xf6	-0.1431881
154	0xff	-0.01431881
155	0x1e	0.4295643
156	0xf0	-0.22910096
157	0xea	-0.31501383
158	0x0c	0.17182572
159	0xfd	-0.04295643
160	0xfe	-0.02863762
161	0x0a	0.1431881
162	0x18	0.34365144
163	0x01	0.01431881
164	0x01	0.01431881
165	0xf0	-0.22910096
166	0xf7	-0.1288693
167	0x1e	0.4295643
168	0xea	-0.31501383
169	0xe9	-0.32933262
170	0x0e	0.20046334
171	0x03	0.04295643
172	0xff	-0.01431881
173	0x00	0.0
174	0x06	0.08591286
175	0x19	0.35797024
176	0x15	0.300695
177	0xf3	-0.18614453
178	0x03	0.04295643
179	0x1a	0.37228906
180	0xfb	-0.07159405
181	0xf5	-0.15750691
182	0xff	-0.01431881
183	0x01	0.01431881
184	0x12	0.2577386
185	0xee	-0.2577386
186	0x09	0.1288693
187	0x1e	0.4295643
188	0xf3	-0.18614453
189	0xf8	-0.11455048
190	0x06	0.08591286
191	0xf8	-0.11455048
192	0xfc	-0.05727524
193	0xf7	-0.1288693
194	0xf9	-0.10023167
195	0x07	0.10023167
196	0x09	0.1288693
197	0x06	0.08591286
198	0xf4	-0.17182572
199	0xfe	-0.02863762
200	0x09	0.1288693
201	0x09	0.1288693
202	0xfa	-0.08591286
203	0x07	0.10023167
204	0xf7	-0.1288693
205	0x01	0.01431881
206	0x05	0.07159405
207	0xfb	-0.07159405
208	0xf6	-0.1431881
209	0x0d	0.18614453
210	0xf4	-0.17182572
211	0x00	0.0
212	0x02	0.02863762
213	0xf5	-0.15750691
214	0x0b	0.15750691
215	0xf9	-0.10023167
216	0x05	0.07159405
217	0x04	0.05727524
218	0x03	0.04295643
219	0xfa	-0.08591286
220	0x01	0.01431881
221	0x02	0.02863762
222	0x07	0.10023167
223	0x00	0.0
224	0x04	0.05727524
225	0x02	0.02863762
226	0x09	0.1288693
227	0xff	-0.01431881
228	0xf6	-0.1431881
229	0xf5	-0.15750691
230	0x0f	0.21478215
231	0xf6	-0.1431881
232	0xf5	-0.15750691
233	0xf7	-0.1288693
234	0xf7	-0.1288693
235	0x0a	0.1431881
236	0x0e	0.20046334
237	0xfb	-0.07159405
238	0x01	0.01431881
239	0x06	0.08591286
240	0xfc	-0.05727524
241	0xfd	-0.04295643
242	0xfb	-0.07159405
243	0x09	0.1288693
244	0xf7	-0.1288693
245	0x0c	0.17182572
246	0x07	0.10023167
247	0xfc	-0.05727524
248	0x06	0.08591286
249	0x0a	0.1431881
250	0x00	0.0
251	0x05	0.07159405
252	0x03	0.04295643
253	0xf4	-0.17182572
254	0x09	0.1288693
255	0x0b	0.15750691

sequential/dense_1/MatMul i1 [64, 128] scale=0.019173382 zero_point=0
0	0x05	0.09586691
1	0xf9	-0.13421367
2	0x1a	0.49850792
3	0xfc	-0.07669353
4	0x00	0.0
5	0x05	0.09586691
6	0x04	0.07669353
7	0xf1	-0.28760073
8	0x2b	0.82445544
9	0x23	0.6710684
10	0x02	0.038346764
11	0xfb	-0.09586691
12	0x07	0.13421367
13	0xfa	-0.11504029
14	0x00	0.0
15	0xfd	-0.057520144
16	0x05	0.09586691
17	0x11	0.3259475
18	0x07	0.13421367
19	0x96	-2.0323784
20	0xff	-0.019173382
21	0xf7	-0.17256044
22	0x0d	0.24925396
23	0x0d	0.24925396
24	0x04	0.07669353
25	0xd9	-0.7477619
26	0xf4	-0.23008057
27	0xfb	-0.09586691
28	0x07	0.13421367
29	0xe8	-0.46016115
30	0xeb	-0.40264103
31	0xfb	-0.09586691
32	0xf9	-0.13421367
33	0x03	0.057520144
34	0x07	0.13421367
35	0xf7	-0.17256044
36	0xff	-0.019173382
37	0xff	-0.019173382
38	0x01	0.019173382
39	0xf2	-0.26842734
40	0xf6	-0.19173382
41	0x02	0.038346764
42	0xf8	-0.15338705
43	0x00	0.0
44	0x08	0.15338705
45	0x09	0.17256044
46	0x03	0.057520144
47	0xd1	-0.901149
48	0x05	0.09586691
49	0x08	0.15338705
50	0x00	0.0
51	0xff	-0.019173382
52	0xd9	-0.7477619
53	0xb7	-1.3996569
54	0xf8	-0.15338705
55	0xf2	-0.26842734
56	0xfd	-0.057520144
57	0xf9	-0.13421367
58	0x0e	0.26842734
59	0x07	0.13421367
60	0xf8	-0.15338705
61	0x04	0.07669353
62	0x15	0.40264103
63	0x03	0.057520144
64	0xf8	-0.15338705
65	0xf7	-0.17256044
66	0xe7	-0.47933453
67	0xfd	-0.057520144
68	0xfa	-0.11504029
69	0xe6	-0.49850792
70	0x0b	0.2109072
71	0x09	0.17256044
72	0xfa	-0.11504029
73	0xfc	-0.07669353
74	0x05	0.09586691
75	0x00	0.0
76	0xea	-0.4218144
77	0xe2	-0.57520145
78	0x03	0.057520144
79	0x05	0.09586691
80	0xfc	-0.07669353
81	0x19	0.47933453
82	0x05	0.09586691
83	0x1a	0.49850792
84	0x04	0.07669353
85	0xfa	-0.11504029
86	0x06	0.11504029
87	0xfb	-0.09586691
88	0x07	0.13421367
89	0xf8	-0.15338705
90	0xfb	-0.09586691
91	0xf8	-0.15338705
92	0x05	0.09586691
93	0xdc	-0.69024175
94	0x12	0.34512088
95	0xfd	-0.057520144
96	0xd1	-0.901149
97	0x08	0.15338705
98	0x07	0.13421367
99	0x1b	0.5176813
100	0xfb	-0.09586691
101	0xf5	-0.2109072
102	0xff	-0.019173382
103	0xe1	-0.59437484
104	0x25	0.70941514
105	0x08	0.15338705
106	0xd6	-0.80528206
107	0xfd	-0.057520144
108	0xfd	-0.057520144
109	0x04	0.07669353
110	0xff	-0.019173382
111	0x01	0.019173382
112	0xf9	-0.13421367
113	0x00	0.0
114	0x03	0.057520144
115	0x00	0.0
116	0xf9	-0.13421367
117	0x08	0.15338705
118	0xc7	-1.0928828
119	0xf8	-0.15338705
120	0xf8	-0.15338705
121	0xff	-0.019173382
122	0xe8	-0.46016115
123	0xfa	-0.11504029
124	0xf8	-0.15338705
125	0xeb	-0.40264103
126	0xfb	-0.09586691
127	0x02	0.038346764
128	0x09	0.17256044
129	0xee	-0.34512088
130	0x0b	0.2109072
131	0x02	0.038346764
132	0xfc	-0.07669353
133	0xfa	-0.11504029
134	0xfe	-0.038346764
135	0x03	0.057520144
136	0x12	0.34512088
137	0xfc	-0.07669353
138	0x03	0.057520144
139	0xfc	-0.07669353
140	0x0c	0.23008057
141	0x06	0.11504029
142	0x08	0.15338705
143	0x16	0.4218144
144	0x06	0.11504029
145	0x2b	0.82445544
146	0xf9	-0.13421367
147	0xfd	-0.057520144
148	0xfc	-0.07669353
149	0x00	0.0
150	0xec	-0.38346764
151	0x0d	0.24925396
152	0x07	0.13421367
153	0xfc	-0.07669353
154	0xdf	-0.6327216
155	0x05	0.09586691
156	0x04	0.07669353
157	0xfc	-0.07669353
158	0xf0	-0.3067741
159	0x07	0.13421367
160	0xf7	-0.17256044
161	0xfc	-0.07669353
162	0xf9	-0.13421367
163	0xf9	-0.13421367
164	0x03	0.057520144
165	0xee	-0.34512088
166	0x02	0.038346764
167	0xe2	-0.57520145
168	0xf6	-0.19173382
169	0x04	0.07669353
170	0xf9	-0.13421367
171	0x01	0.019173382
172	0xf8	-0.15338705
173	0xf9	-0.13421367
174	0x04	0.07669353
175	0xf9	-0.13421367
176	0x00	0.0
177	0xf1	-0.28760073
178	0xf8	-0.15338705
179	0xfa	-0.11504029
180	0xf7	-0.17256044
181	0xfa	-0.11504029
182	0xf7	-0.17256044
183	0xfe	-0.038346764
184	0xfc	-0.07669353
185	0x0e	0.26842734
186	0x0b	0.2109072
187	0x0a	0.19173382
188	0x01	0.019173382
189	0x00	0.0
190	0xfd	-0.057520144
191	0x01	0.019173382
192	0xde	-0.651895
193	0xf8	-0.15338705
194	0xfc	-0.07669353
195	0xe6	-0.49850792
196	0x04	0.07669353
197	0xdd	-0.6710684
198	0xed	-0.36429426
199	0x08	0.15338705
200	0x09	0.17256044
201	0x0d	0.24925396
202	0xfc	-0.07669353
203	0x08	0.15338705
204	0xff	-0.019173382
205	0xed	-0.36429426
206	0x06	0.11504029
207	0xfd	-0.057520144
208	0x09	0.17256044
209	0x1f	0.59437484
210	0x05	0.09586691
211	0x10	0.3067741
212	0xfe	-0.038346764
213	0xfe	-0.038346764
214	0xfc	-0.07669353
215	0x07	0.13421367
216	0x00	0.0
217	0x37	1.054536
218	0xe6	-0.49850792
219	0x02	0.038346764
220	0x08	0.15338705
221	0xfb	-0.09586691
222	0xfb	-0.09586691
223	0xfc	-0.07669353
224	0xf7	-0.17256044
225	0xfd	-0.057520144
226	0x03	0.057520144
227	0xf5	-0.2109072
228	0x03	0.057520144
229	0xec	-0.38346764
230	0xfe	-0.038346764
231	0x02	0.038346764
232	0xf6	-0.19173382
233	0xf8	-0.15338705
234	0xdd	-0.6710684
235	0x09	0.17256044
236	0xfa	-0.11504029
237	0x1e	0.57520145
238	0xfa	-0.11504029
239	0x1f	0.59437484
240	0x06	0.11504029
241	0xf7	-0.17256044
242	0xf9	-0.13421367
243	0xfa	-0.11504029
244	0x00	0.0
245	0x01	0.019173382
246	0x07	0.13421367
247	0x0c	0.23008057
248	0xf8	-0.15338705
249	0x3d	1.1695763
250	0x00	0.0
251	0x09	0.17256044
252	0x03	0.057520144
253	0x11	0.3259475
254	0xfd	-0.057520144
255	0x05	0.09586691

sequential/dense_2/MatMul i1 [35, 64] scale=0.028580956 zero_point=0
0	0x04	0.114323825
1	0x03	0.08574287
2	0xf8	-0.22864765
3	0xfe	-0.057161912
4	0x04	0.114323825
5	0x0b	0.3143905
6	0xed	-0.5430382
7	0x05	0.14290479
8	0x02	0.057161912
9	0x0a	0.28580958
10	0x06	0.17148574
11	0x02	0.057161912
12	0x03	0.08574287
13	0xf5	-0.3143905
14	0xe8	-0.68594295
15	0xfa	-0.17148574
16	0x01	0.028580956
17	0x08	0.22864765
18	0x0a	0.28580958
19	0x09	0.2572286
20	0x05	0.14290479
21	0x00	0.0
22	0xf4	-0.34297147
23	0x07	0.20006669
24	0x01	0.028580956
25	0x01	0.028580956
26	0xff	-0.028580956
27	0x04	0.114323825
28	0xf2	-0.40013337
29	0x02	0.057161912
30	0xfb	-0.14290479
31	0xf9	-0.20006669
32	0x05	0.14290479
33	0xeb	-0.60020006
34	0xfb	-0.14290479
35	0xf7	-0.2572286
36	0x0d	0.37155244
37	0x06	0.17148574
38	0x05	0.14290479
39	0x0b	0.3143905
40	0xe7	-0.7145239
41	0x07	0.20006669
42	0xe0	-0.9145906
43	0x03	0.08574287
44	0xff	-0.028580956
45	0x01	0.028580956
46	0x08	0.22864765
47	0x0f	0.42871433
48	0x04	0.114323825
49	0x01	0.028580956
50	0x0a	0.28580958
51	0x05	0.14290479
52	0x01	0.028580956
53	0xf8	-0.22864765
54	0x04	0.114323825
55	0x00	0.0
56	0x02	0.057161912
57	0x01	0.028580956
58	0x06	0.17148574
59	0x06	0.17148574
60	0x01	0.028580956
61	0xfb	-0.14290479
62	0x01	0.028580956
63	0xf1	-0.42871433
64	0xf5	-0.3143905
65	0xfe	-0.057161912
66	0xd9	-1.1146573
67	0xfb	-0.14290479
68	0x06	0.17148574
69	0x08	0.22864765
70	0xe9	-0.657362
71	0x05	0.14290479
72	0xfa	-0.17148574
73	0x06	0.17148574
74	0x07	0.20006669
75	0xe7	-0.7145239
76	0xf3	-0.37155244
77	0xd9	-1.1146573
78	0xe9	-0.657362
79	0x09	0.2572286
80	0x02	0.057161912
81	0x02	0.057161912
82	0x00	0.0
83	0x0c	0.34297147
84	0x02	0.057161912
85	0xfc	-0.114323825
86	0xce	-1.4290478
87	0xf1	-0.42871433
88	0x04	0.114323825
89	0xfd	-0.08574287
90	0xe2	-0.85742867
91	0x07	0.20006669
92	0xe7	-0.7145239
93	0xf7	-0.2572286
94	0x02	0.057161912
95	0xd5	-1.2289811
96	0x01	0.028580956
97	0xdc	-1.0289145
98	0x05	0.14290479
99	0xe6	-0.7431049
100	0x0d	0.37155244
101	0xfa	-0.17148574
102	0xfd	-0.08574287
103	0x09	0.2572286
104	0xd0	-1.3718859
105	0x0d	0.37155244
106	0x02	0.057161912
107	0x06	0.17148574
108	0x05	0.14290479
109	0x02	0.057161912
110	0x09	0.2572286
111	0x10	0.4572953
112	0xf3	-0.37155244
113	0xfa	-0.17148574
114	0x0e	0.40013337
115	0x04	0.114323825
116	0xfa	-0.17148574
117	0x03	0.08574287
118	0xfd	-0.08574287
119	0xf8	-0.22864765
120	0x04	0.114323825
121	0x0b	0.3143905
122	0xe9	-0.657362
123	0x02	0.057161912
124	0x05	0.14290479
125	0x05	0.14290479
126	0x03	0.08574287
127	0x09	0.2572286
128	0xf3	-0.37155244
129	0x07	0.20006669
130	0x09	0.2572286
131	0x07	0.20006669
132	0x06	0.17148574
133	0x09	0.2572286
134	0x0b	0.3143905
135	0xf9	-0.20006669
136	0x06	0.17148574
137	0x04	0.114323825
138	0x01	0.028580956
139	0x06	0.17148574
140	0xd5	-1.2289811
141	0xdc	-1.0289145
142	0x11	0.48587626
143	0xea	-0.628781
144	0x06	0.17148574
145	0xe6	-0.7431049
146	0x06	0.17148574
147	0xe3	-0.8288477
148	0x0b	0.3143905
149	0xff	-0.028580956
150	0xb5	-2.1435716
151	0x0b	0.3143905
152	0x04	0.114323825
153	0xbb	-1.972086
154	0x06	0.17148574
155	0xf8	-0.22864765
156	0xf0	-0.4572953
157	0x0b	0.3143905
158	0xfc	-0.114323825
159	0x00	0.0
160	0x08	0.22864765
161	0x06	0.17148574
162	0x04	0.114323825
163	0x0a	0.28580958
164	0xcd	-1.4576287
165	0x07	0.20006669
166	0x0b	0.3143905
167	0xf8	-0.22864765
168	0x0c	0.34297147
169	0xeb	-0.60020006
170	0x07	0.20006669
171	0x02	0.057161912
172	0xce	-1.4290478
173	0x0e	0.40013337
174	0xd5	-1.2289811
175	0xe9	-0.657362
176	0x08	0.22864765
177	0x0a	0.28580958
178	0xcc	-1.4862098
179	0x06	0.17148574
180	0xa7	-2.543705
181	0xff	-0.028580956
182	0xf7	-0.2572286
183	0xba	-2.0006669
184	0x05	0.14290479
185	0xf5	-0.3143905
186	0x02	0.057161912
187	0xe6	-0.7431049
188	0x05	0.14290479
189	0xf6	-0.28580958
190	0x07	0.20006669
191	0x0e	0.40013337
192	0xfb	-0.14290479
193	0x06	0.17148574
194	0x0a	0.28580958
195	0xe9	-0.657362
196	0x09	0.2572286
197	0x04	0.114323825
198	0x00	0.0
199	0xfd	-0.08574287
200	0x03	0.08574287
201	0x01	0.028580956
202	0xe1	-0.88600963
203	0x05	0.14290479
204	0xe4	-0.80026674
205	0xd6	-1.2004001
206	0x09	0.2572286
207	0x08	0.22864765
208	0x08	0.22864765
209	0xf3	-0.37155244
210	0xe2	-0.85742867
211	0xeb	-0.60020006
212	0x0c	0.34297147
213	0xff	-0.028580956
214	0xfe	-0.057161912
215	0x06	0.17148574
216	0xff	-0.028580956
217	0xfc	-0.114323825
218	0x06	0.17148574
219	0xdd	-1.0003334
220	0xf0	-0.4572953
221	0xe8	-0.68594295
222	0x05	0.14290479
223	0x04	0.114323825
224	0x00	0.0
225	0x08	0.22864765
226	0x02	0.057161912
227	0x0c	0.34297147
228	0xfe	-0.057161912
229	0x07	0.20006669
230	0x02	0.057161912
231	0x03	0.08574287
232	0x08	0.22864765
233	0xd5	-1.2289811
234	0x08	0.22864765
235	0xf4	-0.34297147
236	0x0d	0.37155244
237	0x0e	0.40013337
238	0xfd	-0.08574287
239	0xe7	-0.7145239
240	0xf2	-0.40013337
241	0x02	0.057161912
242	0xf3	-0.37155244
243	0xf6	-0.28580958
244	0x03	0.08574287
245	0xf1	-0.42871433
246	0xcc	-1.4862098
247	0x06	0.17148574
248	0x03	0.08574287
249	0xc5	-1.6862764
250	0x06	0.17148574
251	0x09	0.2572286
252	0x07	0.20006669
253	0xc8	-1.6005335
254	0x06	0.17148574
255	0x15	0.60020006
