app/src/main/assets/hand_landmark_model.tflite (tflite, 20024 bytes, 6 tensors)

sequential/dense_2/MatMul f4 [3, 64]
0	0xbe1a9afd	-0.15098186
1	0x3e844ba5	0.25838962
2	0x3df8b927	0.1214469
3	0x3ad9675e	0.0016586592
4	0xbe35cdc0	-0.17754269
5	0xbebad3c1	-0.3648968
6	0xbe32fad8	-0.17478502
7	0xbe30fd1e	-0.17284057
8	0xbec6955a	-0.3878582
9	0xbcad6304	-0.021165378
10	0x3cb7e9eb	0.022450408
11	0xbb35d176	-0.0027743257
12	0xbe4325a8	-0.19057333
13	0x3e85a208	0.26100183
14	0xbe7ec92e	-0.24881431
15	0x3d82a563	0.06379201
16	0xbda49b09	-0.08037383
17	0x3d92fec7	0.07177501
18	0x3cbd9426	0.023141932
19	0xbe69bbc9	-0.2282554
20	0x3e614b65	0.22001417
21	0x3e69f8ed	0.22848864
22	0xbe9f4dc3	-0.31114015
23	0x3de18ee2	0.11013581
24	0xbea376d6	-0.31926602
25	0x3e6869de	0.22696635
26	0x3ea35d6c	0.31907213
27	0x3e73c220	0.23804522
28	0x3b440b43	0.002991394
29	0xbe06ef0e	-0.1317713
30	0xbdf1d4a5	-0.11808137
31	0xbcb15b6e	-0.021650042
32	0x3d53018a	0.05151514
33	0x3e431e36	0.19054493
34	0x3dec9e43	0.115536235
35	0x39aac58d	0.00032572114
36	0xbec2ee84	-0.38072598
37	0xbe70bd49	-0.23509707
38	0x3e5de60d	0.21669789
39	0xbda174b7	-0.0788359
40	0x3e8dcae7	0.27693865
41	0xbddc5014	-0.10757461
42	0x3e5817c1	0.21102811
43	0x3e740aed	0.23832293
44	0xbe4a3ce9	-0.19749798
45	0xbe020b3b	-0.12699597
46	0x3e977f17	0.2958915
47	0xbe17116c	-0.1475274
48	0x3d57ae6d	0.05265658
49	0x3e806229	0.2507489
50	0x3ea796ff	0.32732388
51	0x3eb54287	0.3540232
52	0xbe9d9118	-0.3077476
53	0xbe36fc8e	-0.1786978
54	0x3ec0d0e0	0.3765936
55	0x3e964e73	0.29356727
56	0xbd9c30f8	-0.076265275
57	0x3d48064f	0.04883414
58	0x3c53fe87	0.012939102
59	0xbe058f10	-0.13042855
60	0xbe0a2e12	-0.13494137
61	0xbd176dc6	-0.036969922
62	0x3db1d5d2	0.08683361
63	0xbe95897c	-0.29206455
64	0xbe172b30	-0.14762568
65	0x3e12fa00	0.1435318
66	0x3e997825	0.29974476
67	0x3e460035	0.19336016
68	0x3d2bc051	0.041931454
69	0x3d10c66e	0.035345487
70	0x3e7ef4ac	0.24898022
71	0xbe1d6056	-0.1536878
72	0x3d4b0dec	0.049573824
73	0x3e413d9a	0.18871155
74	0x3d5ded10	0.05418116
75	0x3eb21ad6	0.347861
76	0x3e3a326a	0.18183294
77	0x3e49ca23	0.19706015
78	0xbde0a041	-0.10968066
79	0x3e87113e	0.26380342
80	0x3eab3541	0.33439067
81	0x3dd81e39	0.105526395
82	0xbebc7e5b	-0.36815152
83	0x3d3f5db0	0.046720207
84	0xbe59777f	-0.2123699
85	0x3d9a6c21	0.07540155
86	0x3e7cbd18	0.24681509
87	0xbe0f6198	-0.14002073
88	0x3e852fc5	0.26013008
89	0xbdfe5fab	-0.12420591
90	0xbeb18058	-0.3466823
91	0xbe4af6f2	-0.19820765
92	0x3e97e42a	0.29666263
93	0x3eae0482	0.33987814
94	0xbda8fac6	-0.08250956
95	0xbc8e4716	-0.01736788
96	0xbe78debc	-0.24303716
97	0x3e350de0	0.17681074
98	0x3e5bf06e	0.21478435
99	0x3ddef50a	0.10886581
100	0xbe50f3be	-0.2040548
101	0x3eb506d6	0.35356778
102	0xbe289ef2	-0.16466883
103	0xbdf05c04	-0.117363006
104	0x3e536f7e	0.20648
105	0xbec56bc4	-0.3855878
106	0xbdb74c8e	-0.089501485
107	0x3e94358e	0.2894711
108	0x3eb9dcd8	0.36301303
109	0x3e8a1b1d	0.2697381
110	0xbe535f54	-0.20641834
111	0x3e5a6431	0.21327282
112	0xbe427a25	-0.18991907
113	0xbeaa4641	-0.33256724
114	0xbd6827aa	-0.05667845
115	0xbb4e9620	-0.0031522587
116	0xbeac9d5f	-0.33713815
117	0x3d04f48e	0.032459788
118	0x3d47710b	0.04869179
119	0x3eb5abb5	0.35482565
120	0xbe92adff	-0.28648373
121	0xbe70eda1	-0.23528148
122	0x3e6c2840	0.23062229
123	0xbec694be	-0.38785356
124	0x3eae7b33	0.3407837
125	0xbe002506	-0.12514123
126	0x3e89ec91	0.26938298
127	0xbe833922	-0.25629526
128	0x3e29833f	0.16553973
129	0xbe27f023	-0.16400199
130	0x3e0b406f	0.13598798
131	0xbdbd1c1b	-0.09233876
132	0x3e9dcab8	0.30818725
133	0x3e48f654	0.19625217
134	0xbd4565e2	-0.048192866
135	0x3cde9804	0.027172096
136	0x3e8f8216	0.28028935
137	0x3e8d932d	0.2765135
138	0xbc458b1a	-0.01205709
139	0xbe4b17db	-0.19833319
140	0x3d20524c	0.039140984
141	0xbd9748cc	-0.07386932
142	0x3e6c2834	0.23062211
143	0xbdb74b76	-0.0894994
144	0xbe53d109	-0.2068521
145	0x3e24d5a8	0.16097128
146	0xbc77e5fb	-0.015130515
147	0x3e6bc6c4	0.23025042
148	0x3d49f0b7	0.04930183
149	0xbe903682	-0.28166586
150	0x3e716981	0.23575403
151	0xbe99ac68	-0.30014348
152	0x3daaec1d	0.08345816
153	0xbda50548	-0.08057648
154	0xbe778f10	-0.24175668
155	0xbe797c4f	-0.24363826
156	0x3e2b07c8	0.16702187
157	0xbe4687db	-0.19387762
158	0x3e0f8f23	0.14019446
159	0x3d99f3bc	0.07517192
160	0x3dd2ef07	0.10299497
161	0xbe83ad50	-0.25718164
162	0x3ec8e596	0.3923766
163	0xbea88d33	-0.32920226
164	0xbd45793a	-0.048211314
165	0x3e243215	0.1603473
166	0x3e908a27	0.28230402
167	0x3e0fa8ae	0.1402919
168	0x3d953ed8	0.07287377
169	0x3e9e1b90	0.30880404
170	0xbdb99761	-0.09062076
171	0xbe2c2ea9	-0.16814674
172	0x3e39d972	0.18149355
173	0x3d78824a	0.06067113
174	0xbd9f6b1d	-0.07784102
175	0x3d9190fb	0.07107731
176	0x3e0b0224	0.13575035
177	0x3e84d690	0.25944948
178	0xbd86ce8e	-0.06582366
179	0x3e8f68b3	0.28009567
180	0x3e54b5c0	0.20772457
181	0xbe9eefc4	-0.31042302
182	0xbe7f0736	-0.24905095
183	0xbd149a0f	-0.036279734
184	0xbe66c3df	-0.22535656
185	0x3e7e4ec8	0.2483474
186	0xbe8c48fe	-0.2739944
187	0xbde7e4b7	-0.11322921
188	0xbeadd929	-0.33954743
189	0x3ea3449c	0.31888282
190	0x3cc397df	0.023876129
191	0x3e0b56b5	0.13607295

sequential/dense_1/BiasAdd/ReadVariableOp f4 [64]
0	0xbc8e57ba	-0.017375816
1	0x3d449e14	0.048002318
2	0x3cf96904	0.030445583
3	0x3d750d36	0.059827052
4	0xbcde47cc	-0.027133845
5	0x3ab97238	0.001414842
6	0x3ce25e30	0.027632803
7	0xbd2c9ec0	-0.042143583
8	0x3c32f6a0	0.010923058
9	0xbc2d3ad4	-0.010573108
10	0x3a703415	0.0009163034
11	0x3d0d52e1	0.034502868
12	0xbc284d3c	-0.01027232
13	0x3d29a936	0.041421138
14	0x3b63daaf	0.0034767797
15	0x3d3bd578	0.045857877
16	0x3d725fc3	0.059173357
17	0xbc414cfa	-0.011798138
18	0x3d6b5a67	0.05745926
19	0xbc5f4345	-0.013626878
20	0x3cd389df	0.025822578
21	0x3d110da2	0.035413392
22	0xbc24e592	-0.010064499
23	0x3d7ef49c	0.062244996
24	0xbc8aa3d4	-0.016923822
25	0x3d26eb0d	0.040751506
26	0x3d2282d7	0.03967556
27	0xbbdfc993	-0.0068294494
28	0xbab075a8	-0.0013462799
29	0x3d183409	0.037159
30	0xbc357e96	-0.011077544
31	0xbcf684b8	-0.030092582
32	0x3cea0857	0.02856843
33	0x3d006020	0.031341672
34	0x3c687fc1	0.014190615
35	0x3d639a2e	0.05556696
36	0x3a4b6d2f	0.0007760105
37	0x3c6675d1	0.014066176
38	0x3c86b24e	0.016442444
39	0xbccdbd95	-0.025114814
40	0x3d35b597	0.04436263
41	0xbb28bcd9	-0.0025747328
42	0xbc524f39	-0.012836271
43	0x3d13015c	0.03588997
44	0x3c750bc4	0.014956418
45	0xbacb720e	-0.0015521662
46	0x3cef2847	0.02919401
47	0x3a957ac1	0.0011404381
48	0x3cc66db8	0.02422224
49	0x3c5d7fa9	0.013519206
50	0x3cf07c73	0.029356217
51	0x3d34af43	0.044112455
52	0xba9f312d	-0.0012145393
53	0x3d15ffe2	0.036620982
54	0x3d3545d4	0.044256046
55	0x3d72fa19	0.059320543
56	0x3cf58d2d	0.029974544
57	0x39c92333	0.00038363933
58	0x3cfb7c16	0.030698817
59	0x3cbcfc3c	0.023069493
60	0x3c2c8525	0.010529791
61	0xbc92532f	-0.01786193
62	0x3cc17986	0.023617517
63	0xbb2b4355	-0.0026132662

sequential/dense_2/BiasAdd/ReadVariableOp f4 [3]
0	0x3cd06adc	0.02544158
1	0x3add73e5	0.0016895501
2	0xbcea192e	-0.02857646

sequential/dense/BiasAdd/ReadVariableOp f4 [128]
0	0x00000000	0.0
1	0x3c167aa7	0.009184516
2	0xbcba35b0	-0.022730678
3	0xbc5cd7f0	-0.013479218
4	0x3d181cd1	0.037136856
5	0x00000000	0.0
6	0x00000000	0.0
7	0xbcd2198b	-0.025646945
8	0xbcd08d07	-0.025457872
9	0x00000000	0.0
10	0x3bace0c8	0.0052758195
11	0x00000000	0.0
12	0x00000000	0.0
13	0xbccb1ca3	-0.024793928
14	0xbb91e336	-0.0044521345
15	0x3d2091cd	0.039201546
16	0x00000000	0.0
17	0x00000000	0.0
18	0x3bfaa92e	0.0076495623
19	0xbbc4c041	-0.0060043638
20	0xbc4b14cf	-0.012395098
21	0x00000000	0.0
22	0xbd376bac	-0.04478042
23	0x00000000	0.0
24	0xbd094aa2	-0.03351844
25	0xbb9247e4	-0.0044641364
26	0xbbab3596	-0.005224894
27	0x3c96fc9d	0.018431002
28	0xbd0baa91	-0.03409821
29	0x00000000	0.0
30	0x00000000	0.0
31	0xbc02a1f8	-0.007973187
32	0x00000000	0.0
33	0xbc70a54f	-0.01468785
34	0xbcd003ee	-0.025392499
35	0x3d2b96d8	0.041891903
36	0x00000000	0.0
37	0x3c7aba02	0.015303137
38	0xbc99eabd	-0.01878869
39	0x3cb15f7e	0.02165198
40	0xbc714daa	-0.014727989
41	0x00000000	0.0
42	0xbbc4ab73	-0.0060018837
43	0x3ccb477e	0.024814364
44	0x00000000	0.0
45	0xbd0d4559	-0.034489963
46	0xbc979b79	-0.018506752
47	0x00000000	0.0
48	0xbbdb7425	-0.006697195
49	0x00000000	0.0
50	0xbba8173f	-0.0051297243
51	0x3c87f115	0.016594449
52	0x00000000	0.0
53	0x00000000	0.0
54	0x3a8ba9b5	0.0010655435
55	0xbc0d7d08	-0.008635767
56	0x3cca8226	0.024720263
57	0x00000000	0.0
58	0xbc1e6318	-0.0096671805
59	0x00000000	0.0
60	0x3ad69f7c	0.0016374434
61	0x00000000	0.0
62	0x00000000	0.0
63	0xbcc37d41	-0.023863437
64	0xbad5656e	-0.0016280839
65	0x00000000	0.0
66	0xb8199ae2	-3.662229e-05
67	0x3bd05faf	0.0063590626
68	0x00000000	0.0
69	0x3c94c317	0.018159432
70	0x00000000	0.0
71	0xbd23ce1d	-0.039991487
72	0x3cb22ea5	0.021750757
73	0x00000000	0.0
74	0x3ceb5d52	0.028731022
75	0xbd1ac486	-0.037785076
76	0x00000000	0.0
77	0x3cd05423	0.025430745
78	0x3ce21b3d	0.027600879
79	0xbcd73dc9	-0.026274579
80	0x00000000	0.0
81	0x00000000	0.0
82	0x3c255c04	0.010092739
83	0x3af94d3b	0.0019020209
84	0x00000000	0.0
85	0xbcb1eea5	-0.02172024
86	0x00000000	0.0
87	0xbcd8ca4e	-0.026463654
88	0xbcef5a4d	-0.029217863
89	0x3c415c8b	0.011801849
90	0x00000000	0.0
91	0x3c9f463e	0.019442674
92	0xbc523717	-0.012830517
93	0xbc18e59a	-0.009332085
94	0xbcbf26db	-0.023333957
95	0xbc23e19a	-0.010002518
96	0xbcc5a7d1	-0.024127873
97	0x3ab03b62	0.0013445432
98	0xbd024af5	-0.031809766
99	0xbd15476d	-0.03644507
100	0x3c1fcfeb	0.009754161
101	0x3c8fa61b	0.01753526
102	0x3b5c2ce9	0.0033596104
103	0x00000000	0.0
104	0x00000000	0.0
105	0xbcbb44e4	-0.022859998
106	0x00000000	0.0
107	0x00000000	0.0
108	0x3cd425e8	0.025896981
109	0xbc30c0a7	-0.010788119
110	0xbcfe4898	-0.031040475
111	0x00000000	0.0
112	0x00000000	0.0
113	0x00000000	0.0
114	0xbd02994e	-0.031884484
115	0x3c985b75	0.018598298
116	0xbcfff41b	-0.031244328
117	0x00000000	0.0
118	0x00000000	0.0
119	0x3cc79392	0.02436236
120	0x00000000	0.0
121	0x00000000	0.0
122	0x00000000	0.0
123	0x00000000	0.0
124	0x3d2b6005	0.04183962
125	0x00000000	0.0
126	0xbb8ec6df	-0.0043572034
127	0x00000000	0.0

sequential/dense/MatMul i1 [128, 63] scale=0.0029039902 zero_point=0
0	0xef	-0.049367834
1	0xf3	-0.037751872
2	0x11	0.049367834
3	0x26	0.11035163
4	0xe5	-0.078407735
5	0xf0	-0.046463843
6	0xef	-0.049367834
7	0xdb	-0.10744764
8	0x0d	0.037751872
9	0x37	0.15971947
10	0xe3	-0.084215716
11	0x2c	0.12777556
12	0x35	0.15391149
13	0xce	-0.14519951
14	0x14	0.058079805
15	0xe2	-0.087119706
16	0xd4	-0.12777556
17	0x1f	0.0900237
18	0xda	-0.11035163
19	0xeb	-0.060983796
20	0x36	0.15681547
21	0xdf	-0.09583168
22	0x05	0.014519951
23	0x19	0.072599754
24	0x21	0.09583168
25	0xe1	-0.0900237
26	0x15	0.060983796
27	0xdb	-0.10744764
28	0xd3	-0.13067956
29	0x0a	0.029039903
30	0xd3	-0.13067956
31	0xf2	-0.040655863
32	0xec	-0.058079805
33	0xc9	-0.15971947
34	0x30	0.13939153
35	0x0c	0.03484788
36	0x38	0.16262345
37	0x18	0.06969576
38	0x39	0.16552745
39	0x33	0.1481035
40	0x27	0.11325562
41	0xe4	-0.081311725
42	0xdd	-0.10163966
43	0xe1	-0.0900237
44	0x0e	0.040655863
45	0xfd	-0.00871197
46	0xc5	-0.17133543
47	0x05	0.014519951
48	0xf3	-0.037751872
49	0x07	0.020327931
50	0x39	0.16552745
51	0xe7	-0.072599754
52	0xc6	-0.16843143
53	0xc6	-0.16843143
54	0x15	0.060983796
55	0xd4	-0.12777556
56	0xe8	-0.06969576
57	0x0e	0.040655863
58	0xcc	-0.15100749
59	0xf2	-0.040655863
60	0xde	-0.09873567
61	0xc4	-0.17423941
62	0xc7	-0.16552745
63	0x3b	0.17133543
64	0x37	0.15971947
65	0xf5	-0.03194389
66	0x41	0.18875936
67	0x38	0.16262345
68	0xc2	-0.1800474
69	0xd5	-0.12487158
70	0x31	0.14229552
71	0xde	-0.09873567
72	0xfd	-0.00871197
73	0x35	0.15391149
74	0xac	-0.24393518
75	0xf0	-0.046463843
76	0x06	0.01742394
77	0xd4	-0.12777556
78	0xed	-0.055175815
79	0xcf	-0.14229552
80	0xe4	-0.081311725
81	0x1c	0.081311725
82	0xf5	-0.03194389
83	0xec	-0.058079805
84	0x12	0.052271824
85	0x12	0.052271824
86	0xcb	-0.15391149
87	0x32	0.14519951
88	0xc0	-0.18585537
89	0xa0	-0.27878305
90	0xdc	-0.10454365
91	0xd6	-0.12196759
92	0xcc	-0.15100749
93	0x31	0.14229552
94	0x04	0.011615961
95	0x0b	0.03194389
96	0xe7	-0.072599754
97	0x14	0.058079805
98	0xaf	-0.2352232
99	0xed	-0.055175815
100	0xb3	-0.22360724
101	0x17	0.06679177
102	0x2d	0.13067956
103	0xff	-0.0029039902
104	0x08	0.023231922
105	0xe7	-0.072599754
106	0xca	-0.15681547
107	0xc1	-0.18295139
108	0x09	0.026135912
109	0x22	0.09873567
110	0x00	0.0
111	0xfe	-0.0058079804
112	0xbd	-0.19456734
113	0xd0	-0.13939153
114	0xd5	-0.12487158
115	0x37	0.15971947
116	0x3b	0.17133543
117	0xe4	-0.081311725
118	0x01	0.0029039902
119	0x3f	0.18295139
120	0x39	0.16552745
121	0xf1	-0.043559853
122	0xef	-0.049367834
123	0xe5	-0.078407735
124	0x02	0.0058079804
125	0xd8	-0.11615961
126	0x1f	0.0900237
127	0x27	0.11325562
128	0x01	0.0029039902
129	0xd4	-0.12777556
130	0x3a	0.16843143
131	0x68	0.30201498
132	0xd8	-0.11615961
133	0xdb	-0.10744764
134	0x6a	0.30782297
135	0xe6	-0.075503744
136	0x35	0.15391149
137	0x04	0.011615961
138	0x24	0.10454365
139	0x3d	0.17714341
140	0x40	0.18585537
141	0xc1	-0.18295139
142	0x03	0.00871197
143	0x3e	0.1800474
144	0xe4	-0.081311725
145	0xf4	-0.03484788
146	0x3d	0.17714341
147	0xd0	-0.13939153
148	0x33	0.1481035
149	0x49	0.21199128
150	0xef	-0.049367834
151	0x09	0.026135912
152	0x1a	0.075503744
153	0x19	0.072599754
154	0xfc	-0.011615961
155	0x11	0.049367834
156	0xe1	-0.0900237
157	0xfd	-0.00871197
158	0x28	0.11615961
159	0x26	0.11035163
160	0xd0	-0.13939153
161	0x54	0.24393518
162	0xd0	-0.13939153
163	0x4a	0.21489528
164	0x06	0.01742394
165	0x29	0.1190636
166	0x38	0.16262345
167	0xe8	-0.06969576
168	0xc0	-0.18585537
169	0x1e	0.087119706
170	0x36	0.15681547
171	0x0c	0.03484788
172	0x0b	0.03194389
173	0x4e	0.22651124
174	0x27	0.11325562
175	0xf9	-0.020327931
176	0xfc	-0.011615961
177	0x11	0.049367834
178	0xe9	-0.06679177
179	0x9d	-0.28749502
180	0xf1	-0.043559853
181	0xf5	-0.03194389
182	0xa8	-0.25555113
183	0xec	-0.058079805
184	0xc8	-0.16262345
185	0x0f	0.043559853
186	0x02	0.0058079804
187	0x12	0.052271824
188	0x36	0.15681547
189	0x1f	0.0900237
190	0x07	0.020327931
191	0xe1	-0.0900237
192	0x13	0.055175815
193	0x21	0.09583168
194	0x2e	0.13358355
195	0x3a	0.16843143
196	0x25	0.10744764
197	0xef	-0.049367834
198	0x27	0.11325562
199	0xfb	-0.014519951
200	0x17	0.06679177
201	0x3b	0.17133543
202	0xd7	-0.1190636
203	0xd3	-0.13067956
204	0x39	0.16552745
205	0x15	0.060983796
206	0x33	0.1481035
207	0xcc	-0.15100749
208	0xf9	-0.020327931
209	0x3d	0.17714341
210	0x19	0.072599754
211	0xea	-0.06388778
212	0x47	0.2061833
213	0xf8	-0.023231922
214	0x02	0.0058079804
215	0xfc	-0.011615961
216	0xe9	-0.06679177
217	0xf4	-0.03484788
218	0xde	-0.09873567
219	0x22	0.09873567
220	0xff	-0.0029039902
221	0xf4	-0.03484788
222	0x1f	0.0900237
223	0xc3	-0.17714341
224	0x10	0.046463843
225	0x1e	0.087119706
226	0xd4	-0.12777556
227	0x2a	0.12196759
228	0x2f	0.13648754
229	0x14	0.058079805
230	0xc5	-0.17133543
231	0xce	-0.14519951
232	0xfd	-0.00871197
233	0xd8	-0.11615961
234	0xfe	-0.0058079804
235	0xc7	-0.16552745
236	0xed	-0.055175815
237	0xdc	-0.10454365
238	0xf4	-0.03484788
239	0xff	-0.0029039902
240	0x26	0.11035163
241	0xea	-0.06388778
242	0xa0	-0.27878305
243	0x2a	0.12196759
244	0x22	0.09873567
245	0xf4	-0.03484788
246	0xd1	-0.13648754
247	0x05	0.014519951
248	0xf1	-0.043559853
249	0x11	0.049367834
250	0xf5	-0.03194389
251	0xbf	-0.18875936
252	0xe8	-0.06969576
253	0xec	-0.058079805
254	0xff	-0.0029039902
255	0xe7	-0.072599754

sequential/dense_1/MatMul i1 [64, 128] scale=0.0026156032 zero_point=0
0	0xd4	-0.11508654
1	0x03	0.00784681
2	0xcb	-0.13862696
3	0x22	0.08893051
4	0xba	-0.18309222
5	0xe5	-0.07062128
6	0xcb	-0.13862696
7	0xc0	-0.1673986
8	0x2c	0.11508654
9	0x18	0.06277448
10	0xc6	-0.15170498
11	0x32	0.13078016
12	0x43	0.1752454
13	0x38	0.14647378
14	0xf4	-0.03138724
15	0x1d	0.07585249
16	0xd0	-0.12554896
17	0x3e	0.1621674
18	0x20	0.0836993
19	0x3b	0.15432058
20	0xf6	-0.02615603
21	0xc5	-0.15432058
22	0xbf	-0.1700142
23	0x37	0.14385818
24	0x34	0.13601136
25	0x08	0.020924825
26	0x37	0.14385818
27	0x0d	0.03400284
28	0xec	-0.05231206
29	0x26	0.09939292
30	0x2b	0.11247093
31	0xd4	-0.11508654
32	0x1a	0.06800568
33	0xd8	-0.10462412
34	0xd0	-0.12554896
35	0x08	0.020924825
36	0xfa	-0.01569362
37	0xca	-0.14124256
38	0x36	0.14124256
39	0x14	0.05231206
40	0xdd	-0.09154611
41	0xdd	-0.09154611
42	0xc2	-0.1621674
43	0xe9	-0.06015887
44	0xcc	-0.13601136
45	0xc5	-0.15432058
46	0xfb	-0.013078015
47	0xdb	-0.09677732
48	0x1f	0.0810837
49	0x3e	0.1621674
50	0x30	0.12554896
51	0x3e	0.1621674
52	0x20	0.0836993
53	0x3f	0.164783
54	0x13	0.04969646
55	0x17	0.06015887
56	0x26	0.09939292
57	0xef	-0.044465255
58	0xfd	-0.00784681
59	0xeb	-0.054927666
60	0x0a	0.02615603
61	0x00	0.0
62	0xed	-0.04969646
63	0x18	0.06277448
64	0xca	-0.14124256
65	0x1c	0.07323689
66	0x0a	0.02615603
67	0xec	-0.05231206
68	0xde	-0.08893051
69	0x03	0.00784681
70	0xfe	-0.0052312063
71	0xba	-0.18309222
72	0xbc	-0.17786102
73	0x0e	0.036618445
74	0x34	0.13601136
75	0xf1	-0.039234046
76	0x19	0.06539008
77	0x01	0.0026156032
78	0x25	0.09677732
79	0xc4	-0.15693618
80	0xef	-0.044465255
81	0xe9	-0.06015887
82	0x0c	0.03138724
83	0x14	0.05231206
84	0x2b	0.11247093
85	0x03	0.00784681
86	0x1e	0.07846809
87	0xc3	-0.1595518
88	0xcc	-0.13601136
89	0x04	0.010462413
90	0x06	0.01569362
91	0xb8	-0.18832342
92	0x06	0.01569362
93	0xc2	-0.1621674
94	0x14	0.05231206
95	0x32	0.13078016
96	0x28	0.10462412
97	0xe3	-0.07585249
98	0x01	0.0026156032
99	0xe3	-0.07585249
100	0xd7	-0.10723973
101	0xe7	-0.06539008
102	0xe7	-0.06539008
103	0x43	0.1752454
104	0x1b	0.07062128
105	0x3a	0.15170498
106	0xf0	-0.04184965
107	0x40	0.1673986
108	0x14	0.05231206
109	0x02	0.0052312063
110	0xdd	-0.09154611
111	0x17	0.06015887
112	0x2a	0.10985533
113	0xe4	-0.07323689
114	0xc9	-0.14385818
115	0xbd	-0.1752454
116	0x08	0.020924825
117	0x35	0.13862696
118	0x23	0.09154611
119	0x16	0.05754327
120	0x3b	0.15432058
121	0xbe	-0.1726298
122	0x3b	0.15432058
123	0xf6	-0.02615603
124	0xe8	-0.06277448
125	0xfa	-0.01569362
126	0xda	-0.09939292
127	0xf9	-0.018309223
128	0xdf	-0.0863149
129	0xd7	-0.10723973
130	0xb3	-0.20140144
131	0x00	0.0
132	0x3f	0.164783
133	0x2b	0.11247093
134	0xf4	-0.03138724
135	0xd3	-0.11770214
136	0x40	0.1673986
137	0xd4	-0.11508654
138	0xdc	-0.09416171
139	0xff	-0.0026156032
140	0xee	-0.047080856
141	0xec	-0.05231206
142	0xc8	-0.14647378
143	0xf1	-0.039234046
144	0xff	-0.0026156032
145	0xd4	-0.11508654
146	0x34	0.13601136
147	0x09	0.023540428
148	0x0d	0.03400284
149	0xcf	-0.12816456
150	0xcb	-0.13862696
151	0xe1	-0.0810837
152	0xc2	-0.1621674
153	0xfd	-0.00784681
154	0x2c	0.11508654
155	0x45	0.18047662
156	0x33	0.13339576
157	0x0f	0.039234046
158	0xc6	-0.15170498
159	0x25	0.09677732
160	0xcc	-0.13601136
161	0x26	0.09939292
162	0x39	0.14908938
163	0x03	0.00784681
164	0xcf	-0.12816456
165	0xf0	-0.04184965
166	0xbf	-0.1700142
167	0x00	0.0
168	0x2d	0.11770214
169	0x38	0.14647378
170	0xd9	-0.10200852
171	0xff	-0.0026156032
172	0x01	0.0026156032
173	0x2b	0.11247093
174	0xe3	-0.07585249
175	0xd8	-0.10462412
176	0x26	0.09939292
177	0x41	0.1700142
178	0xd3	-0.11770214
179	0xdb	-0.09677732
180	0xbd	-0.1752454
181	0x3f	0.164783
182	0xf5	-0.028771635
183	0x33	0.13339576
184	0x02	0.0052312063
185	0x42	0.1726298
186	0x03	0.00784681
187	0xea	-0.05754327
188	0xc8	-0.14647378
189	0xc3	-0.1595518
190	0xe3	-0.07585249
191	0xdc	-0.09416171
192	0xfd	-0.00784681
193	0xe1	-0.0810837
194	0x1c	0.07323689
195	0x18	0.06277448
196	0x29	0.10723973
197	0xed	-0.04969646
198	0xcc	-0.13601136
199	0x12	0.047080856
200	0x34	0.13601136
201	0x40	0.1673986
202	0xe9	-0.06015887
203	0xbb	-0.18047662
204	0x2f	0.12293335
205	0x24	0.09416171
206	0x20	0.0836993
207	0x24	0.09416171
208	0x0c	0.03138724
209	0xbd	-0.1752454
210	0x2a	0.10985533
211	0xfb	-0.013078015
212	0xfd	-0.00784681
213	0x0a	0.02615603
214	0xdd	-0.09154611
215	0x42	0.1726298
216	0xbe	-0.1726298
217	0x03	0.00784681
218	0x2e	0.12031774
219	0x36	0.14124256
220	0xdb	-0.09677732
221	0xdf	-0.0863149
222	0x41	0.1700142
223	0x19	0.06539008
224	0x12	0.047080856
225	0x2f	0.12293335
226	0xff	-0.0026156032
227	0x37	0.14385818
228	0xf8	-0.020924825
229	0xed	-0.04969646
230	0x17	0.06015887
231	0x3c	0.15693618
232	0x14	0.05231206
233	0xd8	-0.10462412
234	0xc6	-0.15170498
235	0xc3	-0.1595518
236	0x54	0.21971066
237	0xc9	-0.14385818
238	0xd2	-0.12031774
239	0x39	0.14908938
240	0x42	0.1726298
241	0xf8	-0.020924825
242	0xd6	-0.10985533
243	0x55	0.22232626
244	0xbd	-0.1752454
245	0x39	0.14908938
246	0xcb	-0.13862696
247	0x17	0.06015887
248	0x07	0.018309223
249	0xce	-0.13078016
250	0xd5	-0.11247093
251	0xe1	-0.0810837
252	0x5a	0.23540428
253	0xf1	-0.039234046
254	0x06	0.01569362
255	0x03	0.00784681
